Model: "model"
_________________________________________________________________
 Layer (type)                Output Shape              Param #
=================================================================
 input_1 (InputLayer)        [(None, 128, 128, 3)]     0

 conv2d (Conv2D)             (None, 128, 128, 6)       24

 batch_normalization (BatchN  (None, 128, 128, 6)      24
 ormalization)

 leaky_re_lu (LeakyReLU)     (None, 128, 128, 6)       0

 max_pooling2d (MaxPooling2D  (None, 64, 64, 6)        0
 )

 conv2d_1 (Conv2D)           (None, 64, 64, 16)        2416

 batch_normalization_1 (Batc  (None, 64, 64, 16)       64
 hNormalization)

 leaky_re_lu_1 (LeakyReLU)   (None, 64, 64, 16)        0

 max_pooling2d_1 (MaxPooling  (None, 32, 32, 16)       0
 2D)

 conv2d_2 (Conv2D)           (None, 32, 32, 64)        25664

 batch_normalization_2 (Batc  (None, 32, 32, 64)       256
 hNormalization)

 leaky_re_lu_2 (LeakyReLU)   (None, 32, 32, 64)        0

 max_pooling2d_2 (MaxPooling  (None, 16, 16, 64)       0
 2D)

 conv2d_3 (Conv2D)           (None, 16, 16, 128)       204928

 batch_normalization_3 (Batc  (None, 16, 16, 128)      512
 hNormalization)

 leaky_re_lu_3 (LeakyReLU)   (None, 16, 16, 128)       0

 max_pooling2d_3 (MaxPooling  (None, 8, 8, 128)        0
 2D)

 conv2d_4 (Conv2D)           (None, 8, 8, 512)         1049088

 batch_normalization_4 (Batc  (None, 8, 8, 512)        2048
 hNormalization)

 leaky_re_lu_4 (LeakyReLU)   (None, 8, 8, 512)         0

 dropout (Dropout)           (None, 8, 8, 512)         0

 flatten (Flatten)           (None, 32768)             0

 dense (Dense)               (None, 4)                 131076

=================================================================
Total params: 1,416,100
Trainable params: 1,414,648
Non-trainable params: 1,452
_________________________________________________________________
{'EOSINOPHIL': 0, 'LYMPHOCYTE': 1, 'MONOCYTE': 2, 'NEUTROPHIL': 3}

Epoch 1/20
156/156 [==============================] - 126s 806ms/step - loss: 2.8059 - accuracy: 0.3892 - val_loss: 7.0234 - val_accuracy: 0.0845
…
